disable_node: False
disable_edge: False
device_id is 1
use edge feature
Graph Dataset REDDIT:
num_nodes 10985, num_edge 672447
mem size 100, mail size 372, each node cache 1 mails
total 470713 edges for train, can cache 65536, 13.922708741844819%
total 10985 nodes for train, can cache 4096, 37.28720983158853%
GeneralModel(
  (memory_updater): GRUMemeoryUpdater(
    (updater): GRUCell(472, 100)
    (time_enc): TimeEncode(
      (w): Linear(in_features=1, out_features=100, bias=True)
    )
  )
  (layers): ModuleDict(
    (l0h0): TransfomerAttentionLayer(
      (dropout): Dropout(p=0.2, inplace=False)
      (att_dropout): Dropout(p=0.2, inplace=False)
      (att_act): LeakyReLU(negative_slope=0.2)
      (time_enc): TimeEncode(
        (w): Linear(in_features=1, out_features=100, bias=True)
      )
      (w_q): Linear(in_features=200, out_features=100, bias=True)
      (w_k): Linear(in_features=372, out_features=100, bias=True)
      (w_v): Linear(in_features=372, out_features=100, bias=True)
      (w_out): Linear(in_features=200, out_features=100, bias=True)
      (layer_norm): LayerNorm((100,), eps=1e-05, elementwise_affine=True)
    )
  )
  (edge_predictor): EdgePredictor(
    (src_fc): Linear(in_features=100, out_features=100, bias=True)
    (dst_fc): Linear(in_features=100, out_features=100, bias=True)
    (out_fc): Linear(in_features=100, out_features=1, bias=True)
  )
)
mailbox use cache
mail box max query: 165000
Epoch 0:
save model at epoch 0
	train loss:561318.5078  val ap:0.916574  val auc:0.907340
	total time:29.590s sample time:0.129s prep time:27.315s
	build dgl blocks time:0.000s prepare input2 time 0.000s prepare mails time 0.000
cache statistics:
	name edge cache
	call get 211 times, total time 0.0
	call put 211 times, total time 0.0
…
